models/2xMSEO1H20_linear_7.pt (torch, 10790 bytes, 3 tensors)

fc1_bias_read f4 [20]
0	0xbf41b663	-0.75668925
1	0xbf77c164	-0.96779466
2	0xbb05818d	-0.0020371408
3	0xbf150d12	-0.5822307
4	0x3e3c3c50	0.18382382
5	0x3e817a22	0.25288492
6	0xbe826836	-0.25470132
7	0xbe8f42c7	-0.27980635
8	0xbf122b6d	-0.5709751
9	0x3e5e9274	0.21735555
10	0x3e4481da	0.1919016
11	0x3dd1221b	0.10211583
12	0xbf473af5	-0.77824336
13	0x3dd8e0ec	0.105897754
14	0xbe9c8c6d	-0.30575886
15	0xbe0e2385	-0.13880737
16	0x3e5d0437	0.21583639
17	0xbe3e301b	-0.18573038
18	0xbf8ff252	-1.1245825
19	0xbf649f32	-0.8930541

fc1_kernel_read f4 [98, 20]
0	0x39b755a5	0.0003496829
1	0x3d8fee99	0.07027931
2	0xbe84e68d	-0.25957146
3	0xbc3e8fce	-0.011630965
4	0xbd89d048	-0.067291796
5	0xbe57e802	-0.21084598
6	0xbd9e52df	-0.0773065
7	0xbc0a852e	-0.008454604
8	0x3d7b5d7a	0.061368443
9	0x3e02d2fa	0.12775794
10	0x3d50cee4	0.050978556
11	0xbe32e82e	-0.17471382
12	0xbdf28294	-0.11841312
13	0x3e1a1432	0.15046766
14	0xbf094d90	-0.53633976
15	0xbd44604b	-0.047943395
16	0xbe2f120e	-0.17096731
17	0x3cbcb6b8	0.023036346
18	0xbb7f861f	-0.0038989855
19	0x3d81f520	0.06345582
20	0x3e0d6f9d	0.13812108
21	0x3c823374	0.015893675
22	0xbd7d4620	-0.061834455
23	0x3ce4edb2	0.027945373
24	0x38b9fc30	8.868461e-05
25	0x3e01ee2e	0.12688515
26	0xbe45b902	-0.19308856
27	0xbd96b658	-0.07358998
28	0x3ca75e2a	0.020430643
29	0xbe1df926	-0.15427074
30	0xbd8418cf	-0.06450044
31	0x3e1a557d	0.15071674
32	0xbe19324a	-0.1496059
33	0xbdc14cd7	-0.09438484
34	0xbf0a494f	-0.5401811
35	0xbc7df30d	-0.015499842
36	0xbd5f1689	-0.05446485
37	0xbe088f83	-0.13335995
38	0xbd752788	-0.059852153
39	0x3cf1ce88	0.029517427
40	0x3df464de	0.119333014
41	0x3ca00a70	0.019536227
42	0xbe027352	-0.12739304
43	0x3beac285	0.007164302
44	0x3c59a97a	0.013285035
45	0xbe8e3693	-0.27776012
46	0xbd8d8f29	-0.06912071
47	0x3d6f43ea	0.058414377
48	0xbe244272	-0.16040972
49	0x3dee2097	0.1162731
50	0x3d6c5983	0.057702553
51	0xbe84130b	-0.2579578
52	0xbe973ca3	-0.2953845
53	0xbe2064c6	-0.15663442
54	0xbf22bcf3	-0.63569564
55	0xbe0a7d9b	-0.13524477
56	0x3ab87406	0.0014072664
57	0xbd7c02bc	-0.061526045
58	0xbcc2a3fd	-0.023759836
59	0x3da1cded	0.07900605
60	0x3eea14ec	0.45719087
61	0xbd2e9980	-0.042626858
62	0xbe528d82	-0.20561793
63	0x3cf57c89	0.02996661
64	0xbdadcd70	-0.0848645
65	0xbd8a5303	-0.067541145
66	0xbd261c1e	-0.04055416
67	0xbdd6ffbe	-0.10497998
68	0x3be1007b	0.0068665124
69	0xbde20dae	-0.110377654
70	0xbe195e95	-0.14977486
71	0xbdd06111	-0.10174764
72	0xbebbf085	-0.3670694
73	0x3dd46503	0.10370829
74	0xbf210242	-0.6289407
75	0x3d5384c6	0.051640294
76	0xbe85aaf8	-0.26107
77	0xbd9c1e3e	-0.07622956
78	0x3e86a247	0.26295683
79	0x3e30e8c7	0.17276298
80	0x3eb22147	0.34791014
81	0xbe0210f9	-0.12701787
82	0xbe114439	-0.14186181
83	0x3d42513d	0.047440756
84	0xbdb29e94	-0.087216526
85	0x3b6de8fe	0.0036302204
86	0xbd01855b	-0.03162132
87	0x3cf63278	0.030053362
88	0xbe0e85e4	-0.13918263
89	0xbcfe2da3	-0.03102762
90	0xbc0c3204	-0.0085568465
91	0xbd904d80	-0.07046032
92	0xbe9f15a5	-0.310712
93	0xbe7e844f	-0.24855159
94	0xbedd2c6d	-0.43197957
95	0xbdcfab51	-0.10140098
96	0xbd85b061	-0.06527782
97	0xbe61a5e2	-0.22035936
98	0x3d530048	0.05151394
99	0x3c05a82c	0.008157771
100	0x3e1c8942	0.15286735
101	0xbdd22be6	-0.10262279
102	0xbd383ad7	-0.04497799
103	0xbd998155	-0.07495371
104	0xbdf0827f	-0.1174364
105	0xbc7ea385	-0.015541916
106	0xbe4a7ba2	-0.19773725
107	0x3d141531	0.036153022
108	0x3d476f7f	0.048690315
109	0xbe1eefab	-0.15521114
110	0xbd06477e	-0.032783024
111	0xbd1c3a03	-0.03814126
112	0xbeebc778	-0.4605062
113	0xbbbc4818	-0.005745899
114	0xbebbe31f	-0.36696717
115	0x3d9f7319	0.07785625
116	0x3d0a9a59	0.033838604
117	0x3d40abc3	0.047038805
118	0x3d0783cc	0.033084676
119	0xbd80dca0	-0.06292081
120	0x3e6dfdc3	0.23241334
121	0xbd86b418	-0.06577319
122	0xbd9119db	-0.0708501
123	0x3d04d237	0.03242704
124	0xbd21b570	-0.039479673
125	0xbe45ed76	-0.19328865
126	0x3d33f6d9	0.043936584
127	0xbdceacd3	-0.10091557
128	0xbcd2dee2	-0.025741044
129	0x3d8b0253	0.06787553
130	0xbdd0f9b8	-0.1020388
131	0xbd8094f6	-0.06278412
132	0xbeb896bf	-0.3605251
133	0x3c009905	0.007848983
134	0xbe6dfd33	-0.23241119
135	0xbcce64b5	-0.025194505
136	0xbdff620a	-0.12469871
137	0xbe4512fa	-0.1924552
138	0x3cbc8006	0.023010265
139	0x3c5243f9	0.012833589
140	0xbc01ecc0	-0.007929981
141	0x3db750ed	0.08950982
142	0x3df306bd	0.118665196
143	0x3df2ce93	0.11855807
144	0x3d897eb9	0.067136236
145	0x3d1c6406	0.038181327
146	0x3e4fc078	0.20288265
147	0x3ccfc13d	0.025360698
148	0xbdd4d415	-0.10392014
149	0xbd198ca1	-0.03748763
150	0xbded864d	-0.115978815
151	0xbe00dc9c	-0.12584156
152	0xbed8ef55	-0.42370096
153	0xbe525706	-0.2054101
154	0xbee808c6	-0.45319194
155	0xbd50d85b	-0.050987583
156	0xbe4bc7b9	-0.19900407
157	0x3ddf634e	0.10907613
158	0xbde5def9	-0.11224169
159	0x3cfe8f8a	0.031074304
160	0x3d2dded6	0.04244884
161	0x3de69db1	0.11260546
162	0xbdc52589	-0.096263
163	0xbdab012b	-0.08349832
164	0xbd6826fe	-0.05667781
165	0xbe0d9178	-0.13825023
166	0xbd64d010	-0.055862486
167	0x3df42607	0.11921316
168	0xbbf9f6cd	-0.007628298
169	0x3cd1bd62	0.025603
170	0xbd23129d	-0.039812673
171	0xbb71ea19	-0.0036913215
172	0xbe2bf026	-0.16790828
173	0x3a3fded6	0.0007319277
174	0xbf25c110	-0.64747715
175	0xbd59019e	-0.052980058
176	0x3b62b568	0.003459299
177	0x3e068a32	0.13138655
178	0xbd82d538	-0.063883245
179	0x3de50228	0.11182052
180	0x3e811832	0.25213772
181	0x3e207516	0.15669665
182	0x3cfab78a	0.030605096
183	0xbabb3830	-0.0014283713
184	0xbc1d36fb	-0.009595628
185	0x3dbdc6bb	0.092664205
186	0x3d57c592	0.052678652
187	0xbe450ec7	-0.19243918
188	0xbdf4095a	-0.11915846
189	0xbe4481ef	-0.1919019
190	0xbd04a336	-0.032382213
191	0x3dabf8fa	0.08397098
192	0xbe967e3b	-0.2939318
193	0xbd7503c0	-0.05981803
194	0xbf1e9fdd	-0.6196268
195	0x3e036810	0.12832665
196	0xbe51491e	-0.20438048
197	0xbb27b30e	-0.0025588903
198	0x3db9659d	0.09052584
199	0x3e984da6	0.2974674
200	0x3f1ff3c4	0.6248133
201	0xbc989718	-0.018626735
202	0xbe20dc9d	-0.15709157
203	0xbd1c116a	-0.038102545
204	0x3dbc5f52	0.091978684
205	0xbb7ac5bd	-0.0038264834
206	0xbe9e201c	-0.30883873
207	0xbdd6a3f2	-0.10480489
208	0xbde2177d	-0.11039636
209	0xbc3ec9d6	-0.011644801
210	0xbe0f9352	-0.14021042
211	0xbe66e81b	-0.22549479
212	0xbe96ef13	-0.29479274
213	0x3c5af944	0.013365094
214	0xbf28bb20	-0.6591053
215	0xbe23b349	-0.1598636
216	0x3b835ee2	0.0040091136
217	0xbc2f1551	-0.010686235
218	0x3ee3ba1e	0.44477934
219	0x3ee009da	0.43757516
220	0x3eccefe2	0.40026766
221	0x3d9346e2	0.07191254
222	0x3c62f238	0.013851695
223	0xbe05156a	-0.1299645
224	0x3c646e9b	0.013942386
225	0xbce3179d	-0.02772122
226	0xbcd4c0ef	-0.025970904
227	0x3c49ba87	0.012312538
228	0xbdb54872	-0.088517085
229	0xbd9a5060	-0.075348616
230	0x3cbef150	0.023308426
231	0x3d53f8d8	0.051750988
232	0xbe82a0ea	-0.25513393
233	0xbdb8fabd	-0.090321995
234	0xbef6816a	-0.4814561
235	0xbdad7587	-0.08469682
236	0xbe91f623	-0.285081
237	0x3e61eccd	0.22062989
238	0x3e582350	0.2110722
239	0x3e86fbeb	0.26364073
240	0x3e237b3c	0.15964979
241	0xbc245de5	-0.010032152
242	0xbc6b49d7	-0.0143608665
243	0x3d7a532d	0.06111448
244	0x3caea5a0	0.02131921
245	0xbc8d99fe	-0.017285343
246	0x3db364e1	0.087594755
247	0xbd6185ce	-0.055059247
248	0xbd8fc025	-0.070190705
249	0x3e2e5cd5	0.170276
250	0x3c53ccc1	0.012927235
251	0xbe211b99	-0.15733184
252	0xbea48feb	-0.3214105
253	0xbbf83009	-0.0075740856
254	0xbe8a4ab6	-0.27010125
255	0xbd288ff3	-0.041152906

output_kernel_read f4 [20, 1]
0	0x3f0f75e5	0.5603927
1	0x3ed01e27	0.40648004
2	0xbf5e3951	-0.8680621
3	0xbf7acaf8	-0.97965956
4	0xbf4f6e44	-0.81027627
5	0xbf3c2ce2	-0.73505986
6	0xbf60a965	-0.87758476
7	0xbf5afb36	-0.8553957
8	0xbf797b54	-0.9745381
9	0xbf420000	-0.7578125
10	0xbf3edf59	-0.7455955
11	0xbf3a8ee9	-0.72874314
12	0x3f86a9ac	1.052053
13	0xbf4dfb50	-0.804616
14	0x3f63af0e	0.8893899
15	0xbf610cfc	-0.8791044
16	0xbf502825	-0.81311256
17	0xbf6bc636	-0.9209932
18	0x3ee2621f	0.44215485
19	0x3e941bc2	0.28927428
